model/model.pth (torch, 17609 bytes, 4 tensors)

linear1.weight f4 [256, 11]
00000000: 24d8 653e d8cf 183f 312f acbe cb9b 34bd
00000010: 171c 0dbe bf0c fd3d 8030 0c3e dd74 463e
00000020: 368b 183d 7846 b4bd 61f0 00be 2499 3cbe
00000030: 81dd fd3d b43e 2b3d e5ae debe d47d 0dbf
00000040: 8fb4 993e df6c c5be d59e 04bf 1601 10bf
00000050: 1a39 bf3e efd9 b1bc 03fe 183e c124 033f
00000060: 8e66 abbe 560a f53d 11ba 98be 0ac7 bcbe
00000070: e40d 3d3e 637f 35be d24a d63d afc1 25be
00000080: 390b e5bd b60d fe3e 4684 4cbe b848 0e3e
00000090: 35f6 53bd 53ac a2be 4596 493e 194b 3b3e
000000a0: d8a3 4d3e f311 eb3e 523f f3bd a900 8c3d
000000b0: 4230 783e 8a0e 023e 12a6 043f 45db 27be
000000c0: 9fa6 e8bc a86e c73d eadd 183e 39f3 c03e
000000d0: fb8b fd3e c80a 8bba 696f 593e de10 bbbe
000000e0: 8a62 0c3f 19fe f2bd 36da 02be ab58 173e
000000f0: c7e0 223e 1597 203e 7ff1 96be 81a2 14be
00000100: 9ed1 113e 7568 d9bd 8340 6b3b f30c 163f
00000110: 30b8 98bd ca8d aabc 074c d3be c967 c1bc
00000120: 67b3 16bd 226d 9bbe 2e2a ab3e 195e 443d
00000130: 9134 87be 2fef 89be 2cd2 ddbe 652c f43d
00000140: 6e52 97be 12c7 4e3e 025e 2b3e 9d98 9b3d
00000150: 92dd ccbe a4f6 58bd 1653 1f3e da9b 7dbe
00000160: 41a5 113f d150 a9be 9b50 85bd b4ea 33be
00000170: f2a2 98bd a11b 193d d364 09bd 47b1 eebd
00000180: 03fb 933e c757 423d cbfd c8bd 1e7c 283d
00000190: 5bda 65be 6401 72be 7d2d 47be 0e0e ebbd
000001a0: 9b63 273e 9d56 733e 9137 4fbe e298 ac3e
000001b0: 1a7d 853c 5def 0ebd 26f0 c9be 1d19 303f
000001c0: f357 a6be 1846 373e b0fb 24be 9ad2 5a3e
000001d0: 15de e2bd 3f95 13be b702 33be b518 c33d
000001e0: bed3 213e f808 83be 0110 a9be 70f2 de3d
000001f0: f266 61be 3f64 b53e b719 3ebe 31c6 7abe
00000200: 3f84 c9be 7f1e a8be 09ff 2dbd 4401 983c
00000210: 5753 0dbe 45c7 0b3f d013 88be 2b52 edbd
00000220: 6ee1 6a3e 9add 783e 28ee 0f3e 0192 adbe
00000230: f9e2 3fbe 55af a3bc abd1 943d dec9 06be
00000240: b129 073f b66c 0ebe ac64 3fbe 4f4f 40be
00000250: bd7b 9abe 1244 973d 6a53 033e 02a7 5a3e
00000260: 88a1 433e c880 5d3e 541d 50be 883d f03c
00000270: 45ad e23d d253 4a3e 414d cdbd bb20 12be
00000280: 6e3b 623d 41c3 e0bd f06e 16be c1b1 6ebe
00000290: 04d4 ea3d 568e afbe 6d4c b73e a73f a33e
000002a0: cf2c 51be 1720 303e c13d a63c d45a cd3d
000002b0: 6639 c33e 5173 0abe 1a78 013e 6839 a5bd
000002c0: 82ca b53d fb72 6e3e 2df8 ea3e e568 0dbe
000002d0: c74b ba3d 783d fc3d 2b1b 593e e649 eb3e
000002e0: a30d ca3e 7846 3f3e 8e6f 983d be9b c4be
000002f0: a2e2 9f3e f1e1 a03e 73bc 163e 02ea c2be
00000300: 5b42 38be 4731 febd e8fe cabc aa48 aabd
00000310: 546a 323e 8686 ed3d 4506 2ebe b223 7abe
00000320: 55b1 f6bd bbbf 56bd 8f6c 2bbe 599a 9d3e
00000330: ea4c 4cbe 9b5e a2be 1378 02bf 56fd b73e
00000340: 6446 953d db15 dbbd e746 5a3e a36f 81be
00000350: 4457 3c3e b807 61bc 197b 533c 5e6b e4bd
00000360: 4dc9 c8be 0c36 663e e6ab 7b3d f545 1cbe
00000370: 52c0 e13d 2237 e73d b0e6 853e 1ff0 9fbe
00000380: ea69 5fbe 279d 903e 00b4 9abe bc52 87be
00000390: 44a0 683c 3468 3fbe 3d52 cdbd 7afd ccbe
000003a0: b22f fb3e 11ef a33d 2198 acbe c149 a5bb
000003b0: 42a4 703e 7378 4a3e 05e4 90be 1d4d 103e
000003c0: 3b05 bdbd 71bc 9b3e b53f b3be c9cf f73e
000003d0: d2d1 813e 9e9e 623d f445 a6bd d0a5 53be
000003e0: b819 83be da23 2b3e 0e41 c03d 71a8 f4bd
000003f0: 8ffa 13bd 20e7 61be 6c0e de3e 25ca f23e
0.22445732 0.59692144 -0.33629754 -0.04409389 -0.13780247 0.12355947 0.13690376 0.19380517
0.037242137 -0.08802503 -0.12591697 -0.18417794 0.12395764 0.041807845 -0.4349281 -0.55270123
0.30020568 -0.38559625 -0.5180486 -0.56251657 0.37348253 -0.021710364 0.14940648 0.51227957
-0.3347668 0.11964862 -0.29829457 -0.36870605 0.1846233 -0.17724375 0.104634896 -0.16187166
-0.11183781 0.49619836 -0.19972333 0.13894928 -0.051748473 -0.31772098 0.1968623 0.18290366
0.20082033 0.45912132 -0.11877312 0.068360634 0.24237159 0.12700859 0.51815903 -0.16392238
-0.028399764 0.09737903 0.14928403 0.37685564 0.4952086 -0.0010608071 0.21233906 -0.36536306
0.5483786 -0.118648715 -0.12778553 0.14779918 0.15906058 0.15682633 -0.29481122 -0.14515115
0.14240119 -0.10615627 0.0035896606 0.5861351 -0.07457006 -0.020819563 -0.41268942 -0.023609059
-0.036792185 -0.303567 0.33430618 0.0479413 -0.26407292 -0.26940295 -0.4332441 0.1192253
-0.29555076 0.20193127 0.1673508 0.07597468 -0.40012795 -0.05296959 0.15559039 -0.24766484
0.5689278 -0.3306947 -0.06509515 -0.17570001 -0.07452954 0.037379865 -0.03354342 -0.11654907
0.28902444 0.047446992 -0.09814032 0.041133992 -0.22446577 -0.23633343 -0.19450946 -0.1147729
0.1634659 0.23763509 -0.2023604 0.3371039 0.016295005 -0.034896243 -0.3944103 0.6878832
-0.32488975 0.17897832 -0.16111636 0.213694 -0.11077515 -0.14412402 -0.17481504 0.09526197
0.1580343 -0.2559278 -0.33020023 0.10886085 -0.22011927 0.35428044 -0.18564497 -0.24489667
-0.39358708 -0.32835767 -0.04247955 0.018555291 -0.13801323 0.54600936 -0.26577616 -0.11587938
0.22937557 0.24303284 0.14055693 -0.33900455 -0.18738927 -0.019981066 0.072665535 -0.13162944
0.5279799 -0.13908657 -0.18690747 -0.18780254 -0.3017253 0.0738603 0.12824789 0.21352771
0.19104588 0.21631157 -0.20323688 0.029326215 0.11068205 0.19758537 -0.10024501 -0.14270298
0.055232458 -0.10974742 -0.14690757 -0.23309995 0.1146622 -0.3428828 0.35800496 0.318845
-0.2042725 0.17199741 0.020293118 0.1002709 0.3812973 -0.13520552 0.12643471 -0.0806759
0.08876516 0.23286049 0.45892468 -0.13809545 0.09096485 0.12316412 0.2120177 0.45954818
0.3946353 0.18679225 0.07443152 -0.38400072 0.31227595 0.3142238 0.14720325 -0.3806916
-0.17994063 -0.12411743 -0.024779752 -0.08314641 0.17423373 0.11597924 -0.16994579 -0.24427679
-0.12045542 -0.052428942 -0.1674063 0.3078182 -0.19951215 -0.31712803 -0.5096447 0.35935467
0.072888166 -0.10697528 0.2131611 -0.25280485 0.18392664 -0.01373475 0.012907767 -0.11153291
-0.3921608 0.22481555 0.061443232 -0.15261061 0.1102301 0.112898126 0.26152563 -0.31237885
-0.21817747 0.28244898 -0.30215454 -0.2643031 0.014198367 -0.18692094 -0.10025451 -0.40037137
0.49059826 0.08004583 -0.33709815 -0.0050441925 0.2350016 0.1977251 -0.28298965 0.14091916
-0.09229513 0.30417207 -0.35009542 0.48400715 0.25355393 0.05532705 -0.08118811 -0.20668721
-0.2560556 0.16712895 0.09387408 -0.1194619 -0.036127623 -0.22060823 0.43370378 0.4741985

linear1.bias f4 [256]
00000000: faa8 133e 3aea ba3d 253b 01be a7c3 2abe
00000010: fcf8 07be b21d 193e b884 8d3e 1630 863e
00000020: ecb5 233d b445 72be e81e fbbc 1388 303e
00000030: cdc2 e13d 6a64 90bc 7c31 bfbe 93e2 28be
00000040: 85d0 44be b641 693e 81bd 04be 43ca 0c3e
00000050: 07aa 4cbe 4142 973d 2329 453d 5636 873e
00000060: 625b 3e3d ab66 79be 622f 7fbd 3e74 403d
00000070: 6c9f 213e 678b 513e e1d8 083e 8878 22be
00000080: 7da4 853e 2872 033e 5939 82be def5 6dbe
00000090: 06a0 a93d 681f abbe 0365 adbd fa75 7abe
000000a0: a6e7 7ebe fed4 783d 7771 3f3e 863f 97be
000000b0: cb92 1d3e b709 5ebe 01e7 973e 8c6c 8c3e
000000c0: 5bd4 7b3d f1f5 06be 3dbf ad3d ad9b 6cbe
000000d0: 9608 823d af16 423e 8c7f 863e 3ec2 fe3d
000000e0: 98d0 99be 6768 b23d fed8 7bbe 0591 c7bd
000000f0: 61fa 6f3d 4e59 a53e 33f1 2cbe de66 81be
00000100: 68d5 90be 1947 503e 7976 a03d c75e 233e
00000110: fd49 0d3e 76c5 7a3d cc17 523e b08a bf3d
00000120: 8bf4 7fbe 6bee 573e 8a2b e4bc 2787 0c3e
00000130: ce44 003c 81d6 99be 42dd 483e 4845 87bd
00000140: 0708 0c3d 2f56 afbe 4c74 c0bd da7e a63d
00000150: 3190 0d3e 8ef7 f8bc c60f de3d 5ca0 13be
00000160: 3d66 0dbe f05d 9c3d c5fa 36bd 9dfc 373e
00000170: 91ad 133e ee77 593e 3790 39be 4380 9bbe
00000180: 5c27 c13e 6dc9 46be 8823 c63d 1b1e 3dbe
00000190: 4aec 6c3e 0f1d 3c3e 5283 79be 48b5 bf3d
000001a0: 0ad6 b23d 9fca 83bd d593 f23c 48b8 26bd
000001b0: 37ba 47be 6e2a 9cbd e37a 433d 5f94 363d
000001c0: 8200 033e 8d23 a73e 92b4 043e 952f e33d
000001d0: ec24 53bd caca 88be 7ac1 53be 3e4b 8bbe
000001e0: 51af 51be 47e8 da3d 13fa 73be 938c 25bd
000001f0: 51fe 3cbe afb3 47be e5fe 74bd b93e 1b3e
00000200: 24ad e7bc 5a92 503c c511 373d 7b18 07be
00000210: f9fe f9bc 8be3 533e bd16 df3c 93f0 943d
00000220: 9e76 623d 47dd f7bd 8288 31be a8e4 fbbd
00000230: 5d23 0cbe fa5a 14be a8f9 993e ceab 7c3e
00000240: 51c2 0c3e 35ee 493e d4af a5bd 4aaf 8dbe
00000250: eb5a 9abd 9ef7 e13d c9da 2abe 581e 8d3e
00000260: bfb7 7ebe ebd0 4a3d 38c7 bebb 3ebb 3fbe
00000270: 0364 1b3d 6a27 90be 0b36 afbe 4426 f0bd
00000280: 7e57 84bd 2823 3f3d 1e4d 40be 3a72 8fbd
00000290: b1e9 183e 34c1 fc3d fae7 a5bd 086c 25be
000002a0: 88b3 3ebe 8860 7abe b4d2 473e 737b 8fbe
000002b0: 18a6 813e cfad 543e f908 e23d e82b 2f3e
000002c0: 6540 023e 619e 713e 4480 3dbe e3af 443e
000002d0: 666d dc3d 5c4a 82be 2f02 7cbc c621 a0be
000002e0: 84a4 4ebe e59b 8c3d e9d6 383e 043a 39be
000002f0: e278 fcbc 0bbf 513e 2da3 d23d dd8c c2bd
00000300: 0e48 353e 0b39 88be bc4f 403e a6fd 293e
00000310: 9e7f f3bd 4508 6abe a27a 87be e757 113d
00000320: 40ec 863c bc75 a73d e51b dc3d 1cc9 fabc
00000330: 9a91 533d fdc7 da3d a135 19be a476 7dbe
00000340: ec47 9bbe d881 57bd 1151 3abe 85d7 403d
00000350: 3fcb b93e 4618 8ebd c3e5 eb3d e90d 4abe
00000360: 02c3 01be 3c02 8dbe 5d94 5b3e ce6c 893d
00000370: d351 6b3e a3bb 4cbe 4558 21be b6ce 22be
00000380: c7bd 2fbe 52d9 a1bd 117e 2bbe 3a2a 77be
00000390: 0623 21be e711 1b3e 9384 f63c fed5 9f3d
000003a0: 8a99 56bd 23e8 b8ba 9da7 31bd 6084 a1bd
000003b0: fdb2 ad3d c5df 3f3e a2b2 bd3d e75a 35bc
000003c0: e6c1 cbbc d416 55be 95bd 8e3d 9d1b 70bd
000003d0: 8cfc 2cbe c234 1d3e cc33 a53e ab69 4d3d
000003e0: f7cf a4bd b9c9 6f3e e0ef cdbd d39d 043d
000003f0: 03f5 903c 89d3 8f3d a063 b73d cd9e 813d
0.14419928 0.091267064 -0.12620218 -0.16676198 -0.13278574 0.14952734 0.2764032 0.26208562
0.039968416 -0.23659402 -0.030654386 0.17239408 0.110234834 -0.017626006 -0.3734244 -0.16492681
-0.19220169 0.22778973 -0.12962915 0.13749032 -0.19986735 0.07385684 0.048134934 0.26408643
0.04647387 -0.24355571 -0.062301047 0.046985857 0.15783471 0.20463334 0.13363983 -0.15866292
0.26102057 0.12836516 -0.25434378 -0.23238322 0.08282475 -0.334224 -0.08466532 -0.24459067
-0.24893054 0.06075 0.18695627 -0.29540652 0.15388028 -0.21683393 0.2966843 0.27426565
0.061481815 -0.13179757 0.084837414 -0.2310626 0.06349294 0.18953966 0.26269186 0.124393925
-0.30041957 0.087113194 -0.24594495 -0.09744457 0.05858839 0.32294697 -0.16888885 -0.25273794
-0.28287816 0.20339622 0.07835097 0.15954123 0.13797756 0.06122347 0.2051689 0.093526244
-0.2499563 0.21087043 -0.027852792 0.13723432 0.007828904 -0.30046466 0.19615653 -0.06605011
0.034187343 -0.3424544 -0.09397182 0.08129664 0.13824536 -0.03039148 0.10842852 -0.14416641
-0.13808532 0.07635105 -0.044672746 0.17967458 0.14421679 0.21237156 -0.1812142 -0.30371293
0.3772534 -0.19412775 0.09674746 -0.18468516 0.23137012 0.1837046 -0.24366501 0.093607485
0.08732231 -0.06435131 0.029611507 -0.040703088 -0.19504629 -0.0762528 0.047724616 0.04457509
0.12793162 0.3264431 0.12959507 0.1109306 -0.051548883 -0.26717216 -0.20679274 -0.27205843
-0.20477034 0.10688835 -0.23825864 -0.040417265 -0.18456389 -0.19502138 -0.0598134 0.15160646
-0.028280802 0.012730205 0.04469468 -0.13192932 -0.030517088 0.2069227 0.027232522 0.072724484
0.055288903 -0.12102752 -0.1733723 -0.12299472 -0.13685365 -0.1448783 0.30073285 0.24674913
0.13746001 0.19719775 -0.08090177 -0.27672797 -0.075368725 0.11033557 -0.16685022 0.27562213
-0.24874781 0.049515646 -0.0058220886 -0.18723771 0.037937175 -0.2815507 -0.3422092 -0.117260486
-0.06462 0.046664387 -0.18779418 -0.07004209 0.14932896 0.12341538 -0.08100887 -0.16154492
-0.18623173 -0.24450886 0.1951397 -0.28023872 0.25322032 0.20769428 0.11036868 0.17106593
0.12719877 0.23595573 -0.1850596 0.1920772 0.107630536 -0.25447357 -0.01538138 -0.31275767
-0.20179945 0.06865672 0.18050732 -0.18088537 -0.03081936 0.20483033 0.102850296 -0.09499524
0.17703268 -0.2660602 0.18780416 0.16600665 -0.118895754 -0.22854717 -0.2646075 0.03548422
0.016470075 0.08176753 0.10747508 -0.030613475 0.05165253 0.10682676 -0.14961864 -0.24752289
-0.3032831 -0.052614063 -0.18194987 0.047080535 0.36287877 -0.069382235 0.11518433 -0.19731869
-0.12672046 -0.27540767 0.21443315 0.06710206 0.22980432 -0.19993453 -0.15756328 -0.15899166
-0.17162238 -0.07902779 -0.1674731 -0.24137202 -0.15736017 0.15143548 0.030092513 0.07804488
-0.05239252 -0.0014107268 -0.04337274 -0.07886577 0.08481405 0.18737705 0.09262587 -0.011069036
-0.024872731 -0.2080949 0.06969754 -0.058620084 -0.16893214 0.15352157 0.3226608 0.0501496
-0.08047479 0.23416795 -0.10055518 0.032377075 0.017694956 0.07022769 0.08954549 0.06329117

linear2.weight f4 [3, 256]
00000000: 48f4 e5bc 6f43 de3e bbd8 59bd 8bde eebe
00000010: 13cb 2fbe c7ab 443e b045 30bd 3866 443e
00000020: 4386 46be 9a02 38be 31f6 493e d276 babd
00000030: 22d0 353e 3644 07be 0efb 8c3c c083 0ebe
00000040: eb90 4ebe cb96 483d a0e7 9d3e 041d 92bd
00000050: baf0 70bc 23f2 613e f0ee 1a3d 72ca dd3d
00000060: 9f6e eebc 80b4 6b3a d1dd 86bd 049b d9bc
00000070: 4099 b13d ab7f 923d 74f4 803e 69fc 57be
00000080: fd75 c8bd 6f6a dcbe e972 5bbe 77cf 74bc
00000090: fc94 923d 92fe 56bd 582e 20be f665 4c3d
000000a0: d0e5 5fbe 9743 b7be 9cf7 7ebd 9ad4 5a3d
000000b0: 5aa7 ba3d f9dd 6dbe 9981 ad3e d3d0 373e
000000c0: 475b 7c3d 22fe 29be 343b eb3d 8cde bb3e
000000d0: 8910 f03b 8b0f a1bb ed37 eb3e 6c6a 92bb
000000e0: 3244 40bd 765d df3d f9ac 0fbb bde6 7e3e
000000f0: 41e5 c83e 2b31 8e3e 1788 9c3e 6204 0bbd
00000100: 2778 fe3d d857 c43b 3857 983e 7c49 12be
00000110: 9420 ff3b 39d5 843e c29c 093e d43c e8bd
00000120: 1b78 f53d 539a 6f3d d36d 66bd 22ff aebd
00000130: c482 4abd 3eb9 04bd 9491 523e 88f3 efbd
00000140: 8bdf ef3d fcc6 433d 0d97 c2bd 97ee 9a3d
00000150: 95dd 743e 11bb a6be 375c 843d 8fd8 38be
00000160: 8c2d cb3d 296f a0be de61 ea3d 5b22 6a3e
00000170: db98 423e de1b 4a3d b0cf 3d3c 3e19 103d
00000180: 2272 a13e e08c 76bb df22 eebc dcb2 b8be
00000190: 0a5d 0fbe af7d a23d 97da f73c f9ff 633e
000001a0: a968 4e3b dd9d 3e3c fc51 3cbd fdda bcbe
000001b0: 0b4c 4d3d 4d31 7cbe d288 953b e500 9bbd
000001c0: 0070 383e 3cb4 973e bed4 2dbd 96d8 b63e
000001d0: 8e4a 71be 031f 253b 1c57 2a3d 72dc af3a
000001e0: 15e2 babe 1fd6 7bbd b41d 51bd 7e4b 88bd
000001f0: 84c9 dc3d 56af 99be d5a0 36be 905d 273c
00000200: c427 90bd 0d83 4cbc 7f87 c8bd 6f7c a3be
00000210: 05ec a7bc b0df 633e a1c8 7ebd d67a e2bd
00000220: b2ef 41be 418e 12be a572 4abe 160f a1be
00000230: 57c0 a0be c3df bebd 4171 923d 566b adbc
00000240: 3dc5 b9bd c376 a03e cc7a 9c3d bb08 a3bd
00000250: bf48 44bf fc9f 23bd 7311 80be 80af de3d
00000260: 8450 e63c ebaf 82bd 285b d6bd 3eec 6fbe
00000270: e64a 43be fc1b 31bd 5214 08be e40b 8b3c
00000280: ccd4 b0be 48a0 64be eb48 933d ada2 1d3e
00000290: 0dcd 863d 288b a13e 4b45 49be 2607 6f3d
000002a0: f127 bb3d 799a debc 69e2 52be 8563 b93e
000002b0: ae5d d53e e7d8 f7be b353 3f3e b3d1 91bd
000002c0: d95c 003d 774b 063e 113c 9e3e 6abb 3cbb
000002d0: e234 343e e040 52bc db03 08be 49d6 ae3e
000002e0: ecd8 eebe 354b d73d edc9 44bd 095e 1bbd
000002f0: bda6 a43e 134f ef3d 0031 85bd 0406 64bd
00000300: b421 253e 701e f73d e336 e43b 7978 4cbd
00000310: 4467 dabc ff6b 13be 4bf2 18bd 9f0a 52be
00000320: 5aa2 30bd 253e 56be 04d6 fdbd 375c 9bbe
00000330: 96af dabc f571 963b 64e5 3dbd 57b1 19be
00000340: d520 a7bc 5662 35be da0c 4bbe 9c45 703e
00000350: e80d 363e 54dd 82be 18df a2bd 7706 77be
00000360: afe6 1cbe b5f3 0bbe 7158 1e3e 501f 713e
00000370: f50f b6bc d33c 3dbd 7e1c 863d c6c4 773e
00000380: d884 643e 9008 85be 0c5a f6be cfb6 45bc
00000390: 02a8 91be 1b39 3c3e 3877 483e 8f25 dfbd
000003a0: 0110 093e 8eab e6be aedc 10be 3605 84be
000003b0: 96cd 993e e00a 48bd 6ef5 f53d 8235 a63e
000003c0: 6a50 a3bd 328a 7d3d 72a9 8f3d a222 a8bd
000003d0: 6a99 e9bb a3f8 00be e6d3 0c3f 9b70 83be
000003e0: c075 48be 6d7b 0a3f ab4c 85be 854f c0bd
000003f0: a46a 443e 1cf2 a1bd 5e1a c2bd b169 103e
-0.028070584 0.43410823 -0.053185206 -0.46654162 -0.1716731 0.19206153 -0.04303521 0.19179618
-0.19387154 -0.17969742 0.19722821 -0.091046944 0.17755178 -0.13209614 0.017209556 -0.13917446
-0.2017247 0.048971932 0.30840778 -0.071344405 -0.014705831 0.22065024 0.037825525 0.10829629
-0.029105483 0.0008991435 -0.06585277 -0.026563175 0.08671808 0.07153257 0.25186503 -0.2109238
-0.097881295 -0.43049952 -0.21430553 -0.014942042 0.07157323 -0.05248887 -0.15642679 0.049901925
-0.2186501 -0.35793754 -0.062247857 0.05342541 0.09113951 -0.23229207 0.33887938 0.17950754
0.061610486 -0.1660085 0.114859015 0.36693227 0.00732619 -0.004915183 0.45941105 -0.004468253
-0.046940036 0.10906498 -0.0021923168 0.24892707 0.39237407 0.27771887 0.30572578 -0.033939727
0.12425261 0.005991917 0.29754043 -0.14285845 0.007785866 0.25943926 0.13438705 -0.11339727
0.11985799 0.058496784 -0.05625708 -0.085447565 -0.049441114 -0.032403223 0.20563346 -0.11716372
0.11712559 0.04779719 -0.09501467 0.07565039 0.23912652 -0.32564595 0.06462901 -0.1805136
0.09920797 -0.31334808 0.11444448 0.22864668 0.19003622 0.049342982 0.011585161 0.035180323
0.3153239 -0.003762059 -0.029069362 -0.3607396 -0.14000335 0.079341285 0.030255599 0.22265615
0.0031495488 0.011634317 -0.045976624 -0.36885825 0.05012135 -0.24628182 0.0045634294 -0.0756853
0.18011475 0.29629695 -0.042439215 0.35712117 -0.23563597 0.0025195486 0.04158698 0.0013417138
-0.36500612 -0.0614835 -0.051053718 -0.06655024 0.107806236 -0.30016583 -0.1783479 0.010215178
-0.07038835 -0.012482417 -0.09791469 -0.31930873 -0.020498285 0.22253299 -0.062203053 -0.11058585
-0.18939093 -0.14312078 -0.19770296 -0.31456822 -0.31396744 -0.09320023 0.07150508 -0.021169346
-0.09070823 0.31340608 0.07640609 -0.079606496 -0.766735 -0.039947495 -0.25013313 0.10873318
0.028114565 -0.0638121 -0.104666054 -0.23429963 -0.1907154 -0.04323958 -0.13289002 0.016973443
-0.3453735 -0.22326767 0.071916424 0.15394087 0.06582079 0.3155148 -0.1965534 0.058356427
0.091384776 -0.027173268 -0.20594181 0.3620874 0.41673034 -0.4840767 0.18684272 -0.07120075
0.031338546 0.13114725 0.30905202 -0.002879823 0.17598298 -0.01283285 -0.1328272 0.34147862
-0.46649873 0.105123915 -0.048044134 -0.037931476 0.3215846 0.11685004 -0.06503487 -0.0556698
0.16126138 0.12066352 0.006964551 -0.04991958 -0.026660569 -0.14396666 -0.037340444 -0.20511864
-0.04312358 -0.20922144 -0.12394336 -0.30343792 -0.026695054 0.0045912215 -0.046361342 -0.15009056
-0.020401398 -0.17713293 -0.19829121 0.23464054 0.17778742 -0.25559485 -0.07952708 -0.2412356
-0.15322374 -0.13667186 0.15463425 0.23547101 -0.022224406 -0.046200585 0.06548403 0.24196157
0.22316301 -0.25983095 -0.48115575 -0.012067511 -0.28448492 0.18381159 0.19576728 -0.108958356
0.13385011 -0.4505276 -0.14146683 -0.25785226 0.30039662 -0.048838496 0.120097026 0.32462698
-0.07974322 0.06189937 0.07014741 -0.08209731 -0.007128884 -0.12594847 0.5501083 -0.2567185
-0.19576168 0.5409458 -0.26035056 -0.09390167 0.19181305 -0.07907507 -0.094776854 0.14102818

linear2.bias f4 [3]
00000000: f74f 183d 70c9 20bd e50e bdbd
0.037185635 -0.039254606 -0.092313565
